project/weight/De_final_model.pth (torch, 94875 bytes, 65 tensors)

stages.0.norm1.weight f4 [32]
0	0x3f80dcb7	1.0067357
1	0x3f848e7a	1.035598
2	0x3f781c46	0.9691814
3	0x3f78f242	0.97244656
4	0x3f7c9454	0.9866383
5	0x3f7c5771	0.98570925
6	0x3f801734	1.0007081
7	0x3f7d6115	0.9897626
8	0x3f75af40	0.95970535
9	0x3f807950	1.0037022
10	0x3f83bbdd	1.0291706
11	0x3f7f3efd	0.9970549
12	0x3f7c46c4	0.9854548
13	0x3f7d981d	0.9906023
14	0x3f8062bb	1.003013
15	0x3f82f6a3	1.0231518
16	0x3f7420f8	0.95362806
17	0x3f7b35b8	0.98128843
18	0x3f759bd5	0.95940906
19	0x3f79e0fc	0.97608924
20	0x3f8255f5	1.0182482
21	0x3f8221bb	1.0166544
22	0x3f7ac260	0.9795284
23	0x3f802c42	1.0013506
24	0x3f840bf0	1.0316143
25	0x3f85e1a7	1.0459489
26	0x3f866066	1.0498168
27	0x3f83a28e	1.0283983
28	0x3f7e15c7	0.9925198
29	0x3f8344a5	1.0255324
30	0x3f85cf1b	1.0453829
31	0x3f7fe460	0.9995785

stages.0.norm1.bias f4 [32]
0	0x3a14ca61	0.0005675909
1	0x3c69e7ee	0.014276488
2	0xbbd7df2d	-0.006587884
3	0xbd3352ba	-0.043780066
4	0xbc404e2b	-0.011737387
5	0xbcd3d953	-0.025860464
6	0xbce2b7e8	-0.027675584
7	0x3cbe0485	0.023195514
8	0xbd23c444	-0.039982095
9	0x3c4cf978	0.01251065
10	0x3ce49f1c	0.0279079
11	0x3c19c02a	0.009384194
12	0x3c79cd73	0.015246737
13	0xbcb93f4b	-0.022613188
14	0xbc9e18e9	-0.019298987
15	0x3c4c67e6	0.012475943
16	0xbcd2f6c3	-0.02575243
17	0x3adbe1f1	0.001677571
18	0xbc2ff172	-0.010738717
19	0xbcf7ecc0	-0.030264258
20	0x3cb577eb	0.022151908
21	0x3caae522	0.020861212
22	0x3ca0a10b	0.019608041
23	0x3c222509	0.009896525
24	0x3c01c75e	0.007921068
25	0x3c094272	0.008377658
26	0xbc8275c0	-0.015925288
27	0x3cae5ac5	0.021283517
28	0x3d221677	0.039572205
29	0x3c078806	0.008272177
30	0xbc32c127	-0.010910309
31	0x3c896c91	0.016775401

stages.0.norm2.weight f4 [32]
0	0x3f7cbecf	0.9872865
1	0x3f806eb3	1.0033783
2	0x3f7d90c9	0.9904905
3	0x3f7fc1b3	0.99904937
4	0x3f82daa2	1.0222971
5	0x3f829cbc	1.0204082
6	0x3f82cc9d	1.0218693
7	0x3f84bfd8	1.0371046
8	0x3f8030ba	1.001487
9	0x3f805478	1.0025778
10	0x3f7c4c85	0.9855426
11	0x3f7c38ba	0.9852406
12	0x3f7a2973	0.97719496
13	0x3f83f61d	1.0309483
14	0x3f80c0d5	1.0058848
15	0x3f807d22	1.0038188
16	0x3f8381d4	1.0273995
17	0x3f7ca14b	0.98683614
18	0x3f80558e	1.0026109
19	0x3f847514	1.034823
20	0x3f7a0017	0.9765639
21	0x3f838493	1.0274833
22	0x3f8139b7	1.0095738
23	0x3f815f33	1.0107177
24	0x3f7f0434	0.9961579
25	0x3f7bfc51	0.9843188
26	0x3f8258e7	1.0183381
27	0x3f7e5ad9	0.9935737
28	0x3f83cab1	1.0296232
29	0x3f81f4e3	1.0152858
30	0x3f859d10	1.0438557
31	0x3f80fad2	1.0076544

stages.0.norm2.bias f4 [32]
0	0xbca67259	-0.020318197
1	0x3cf390dd	0.029732162
2	0xbc26685f	-0.01015672
3	0xbc879eeb	-0.01655527
4	0x3c29fd36	0.010375312
5	0x3a6cb7cf	0.0009030075
6	0x3cc8765e	0.024470504
7	0xbc240209	-0.010010251
8	0x3be8b3d0	0.0071015134
9	0xbae44d27	-0.0017418013
10	0x3ba4920e	0.005022294
11	0xbcac387a	-0.021023024
12	0x389a1253	7.3467054e-05
13	0x3c20bc56	0.009810528
14	0xbc7734d2	-0.015088277
15	0xbc8f01e6	-0.01745696
16	0x3cfa47ea	0.03055187
17	0xba9cd48f	-0.0011965203
18	0x3b338d03	0.0027397282
19	0x3c8b030f	0.016969232
20	0x3c154d6c	0.009112697
21	0x3c61cda6	0.013781941
22	0x3bc662c4	0.0060542542
23	0x3af57185	0.0018725848
24	0x3c8b73f5	0.017023066
25	0xbcb3ec48	-0.021963254
26	0xbc64c024	-0.0139618255
27	0xbc054b4f	-0.008135631
28	0xbbf05b40	-0.0073350966
29	0x3b965dc8	0.0045888163
30	0x3c99920f	0.018746404
31	0xbc9f7483	-0.019464737

stages.0.conv.norm2d.weight f4 [32]
0	0x3f82ea26	1.0227706
1	0x3f7e21e0	0.9927044
2	0x3f826f5c	1.0190234
3	0x3f799dec	0.97506595
4	0x3f80f011	1.0073262
5	0x3f80d877	1.006606
6	0x3f7e975c	0.99449706
7	0x3f795002	0.9738771
8	0x3f80ddbd	1.0067669
9	0x3f7b8abd	0.9825857
10	0x3f7f0089	0.9961019
11	0x3f7cc834	0.98742986
12	0x3f7b128f	0.98075193
13	0x3f81186a	1.0085576
14	0x3f813672	1.009474
15	0x3f7e7e6a	0.9941164
16	0x3f81b315	1.0132776
17	0x3f843d6f	1.0331248
18	0x3f8036b5	1.0016695
19	0x3f738ffb	0.9514157
20	0x3f7fd5bd	0.99935514
21	0x3f7dd812	0.9915782
22	0x3f82aa5b	1.0208238
23	0x3f814d3b	1.0101694
24	0x3f817def	1.0116557
25	0x3f74e247	0.9565777
26	0x3f7fbb70	0.9989538
27	0x3f7b8394	0.9824765
28	0x3f7fb185	0.9988025
29	0x3f82d6b9	1.0221778
30	0x3f7cfe6f	0.98825735
31	0x3f7e73f4	0.9939568

stages.0.conv.norm2d.bias f4 [32]
0	0x39f102f2	0.00045969296
1	0xbc8f8df4	-0.017523743
2	0x3b1fe0f0	0.0024395548
3	0xbc6e2cdf	-0.014537065
4	0xbbbaf3c3	-0.005705328
5	0xbc975934	-0.018475153
6	0x3cb7ef16	0.022452872
7	0x3d066ef6	0.032820664
8	0xbba6412a	-0.005073686
9	0xbc6e25c8	-0.014535375
10	0x3aa42390	0.0012522805
11	0xbd0b2d73	-0.03397889
12	0xbcfca53e	-0.030840512
13	0xbceb82fb	-0.02874898
14	0xbb85e749	-0.004086409
15	0x3c2cfa18	0.010557674
16	0xbcd9b4c7	-0.02657546
17	0xbc4adf3a	-0.012382323
18	0xbc386f05	-0.011256938
19	0xbc9c0a78	-0.01904796
20	0xbc755289	-0.014973291
21	0xbd201557	-0.03908285
22	0x3ca5bcf3	0.0202317
23	0x3bd1de8a	0.0064047026
24	0x3c833fc2	0.016021613
25	0x3bfd15a3	0.0077235266
26	0x3c238325	0.009979998
27	0x3ad87a00	0.0016515851
28	0x3cb48505	0.022036085
29	0x3cd289f8	0.025700554
30	0x3c4e1571	0.012578354
31	0x3cddff33	0.027099228

stages.0.conv.norm2d.running_mean f4 [32]
0	0xbd048058	-0.03234896
1	0x3d625d6c	0.055264875
2	0xbc621403	-0.0137987165
3	0xbd7d1754	-0.061789826
4	0x3d112090	0.035431445
5	0x3ddf0aad	0.10890708
6	0xbdde86b1	-0.10865534
7	0xbd2fc857	-0.04291567
8	0x3c0391d5	0.008030375
9	0xbbedf9c7	-0.007262442
10	0x3d897f5a	0.067137435
11	0xbdcc1609	-0.0996514
12	0xbb8a9724	-0.004229443
13	0x3d30a661	0.04312742
14	0xbc0a51f4	-0.008442391
15	0xbc76c2e9	-0.015061119
16	0x3bbe7128	0.005811829
17	0xbc19d897	-0.009390018
18	0xbc9e4a99	-0.01932268
19	0x3e059d0b	0.13048188
20	0xbe1b5b54	-0.15171558
21	0x3a924881	0.0011160524
22	0x3cdc8a48	0.026921406
23	0xbc78bb64	-0.015181396
24	0x3d8abc7b	0.06774231
25	0xbd666d5b	-0.056256633
26	0xbd18d2ec	-0.037310526
27	0x3d59f09e	0.053207986
28	0x3d308169	0.043092165
29	0xbd923ff0	-0.07141101
30	0xbc580e62	-0.013187023
31	0xbb92bbc6	-0.0044779507

stages.0.conv.norm2d.running_var f4 [32]
0	0x3f82bc07	1.0213631
1	0x3f4be290	0.7964258
2	0x3f5c198a	0.8597647
3	0x3f8823b7	1.0635899
4	0x3f96edb0	1.1791286
5	0x3f4f9822	0.8109151
6	0x3f572cef	0.8405294
7	0x3f7fa000	0.99853516
8	0x3f8bcc2d	1.0921685
9	0x3f7defd5	0.9919408
10	0x3f5f695a	0.8727013
11	0x3f6ba574	0.92049336
12	0x3f82d41c	1.0220981
13	0x3f8ffb1a	1.1248505
14	0x3f6e301a	0.9304215
15	0x3f5c5235	0.8606294
16	0x3f7ecdfa	0.99533045
17	0x3f8a2049	1.0791103
18	0x3f80ed7f	1.0072478
19	0x3f6e59c1	0.93105704
20	0x3f5a2837	0.85217613
21	0x3f8534c9	1.0406734
22	0x3f8e4538	1.1114874
23	0x3f70fb9a	0.94133914
24	0x3f71a861	0.9439755
25	0x3f5f7c2a	0.87298834
26	0x3f879839	1.059333
27	0x3f91bdbf	1.1386031
28	0x3f5facc0	0.8737297
29	0x3f617717	0.8807234
30	0x3f701aa0	0.93790627
31	0x3f8ff8b0	1.1247768

stages.0.conv.norm1d.weight f4 [32]
0	0x3f78cac5	0.971844
1	0x3f7d9747	0.99058956
2	0x3f7d4737	0.9893679
3	0x3f7b8dfb	0.9826352
4	0x3f7b986c	0.9827945
5	0x3f76318b	0.96169347
6	0x3f774f73	0.96605605
7	0x3f78ee1e	0.9723834
8	0x3f7bfc69	0.9843202
9	0x3f7b97ce	0.9827851
10	0x3f78eab9	0.9723316
11	0x3f7fcecd	0.9992493
12	0x3f7b0859	0.9805961
13	0x3f7e37cd	0.99303895
14	0x3f7a4576	0.9776224
15	0x3f79e439	0.97613865
16	0x3f7afcde	0.98042095
17	0x3f77d084	0.96802545
18	0x3f7a0a47	0.9767193
19	0x3f75b9cc	0.9598663
20	0x3f79d091	0.9758387
21	0x3f76e881	0.9644852
22	0x3f7a2f83	0.9772875
23	0x3f80934c	1.0044951
24	0x3f767fe3	0.9628889
25	0x3f6ba7c4	0.92052865
26	0x3f80f559	1.0074874
27	0x3f71eba5	0.9450019
28	0x3f7b6b99	0.98211056
29	0x3f7bad76	0.98311555
30	0x3f710cba	0.94160044
31	0x3f71a12d	0.9438656

stages.0.conv.norm1d.bias f4 [32]
0	0x3ab6594c	0.0013912111
1	0xbc8e57f3	-0.017375922
2	0xbd2a294f	-0.0415433
3	0xbc2e99cc	-0.010656785
4	0xbcfd0659	-0.030886816
5	0xbc647989	-0.013944992
6	0x3b2993c0	0.002587542
7	0x3abe57e9	0.0014522049
8	0x3a3bee5b	0.00071690016
9	0xbb03278f	-0.0020012592
10	0xbb3c3c92	-0.0028722626
11	0x3cecbc70	0.028898448
12	0xbb04459d	-0.0020183094
13	0xbbef5407	-0.007303718
14	0x39b1e163	0.00033927997
15	0xbc34de40	-0.011039317
16	0xbc3efc26	-0.011656797
17	0xbbd4e285	-0.00649673
18	0xbcaafd83	-0.020872837
19	0x3c4a3503	0.012341741
20	0xba9bfe96	-0.0011901434
21	0xbb3eedb8	-0.002913339
22	0x3b740bfd	0.003723859
23	0xbcbbbf7f	-0.02291846
24	0xbc7ee760	-0.015558094
25	0x3cf8f499	0.03039007
26	0xbd10079e	-0.035163514
27	0xbcdb2b44	-0.02675403
28	0xbcbf05ce	-0.023318198
29	0xbb86a44e	-0.004108942
30	0x3d183e64	0.037168875
31	0xbd0a3220	-0.03373921

stages.0.conv.norm1d.running_mean f4 [32]
0	0x3c2690d3	0.010166365
1	0x3cb52d44	0.02211631
2	0x3c3886d0	0.011262611
3	0x3cface2b	0.030615887
4	0x3c70525b	0.014668073
5	0x3c690bef	0.014224037
6	0x3c24720f	0.010036959
7	0x3c90b96c	0.017666541
8	0x3cfb7ddc	0.030699663
9	0x3be58191	0.007003971
10	0x3cb56ebf	0.022147534
11	0xba393a4d	-0.00070658774
12	0x3d002477	0.031284776
13	0x3c5cb97b	0.013471956
14	0x3c790ed3	0.015201288
15	0x3d0712f6	0.032977067
16	0x3c1eaa2f	0.00968413
17	0x3c58f985	0.013243084
18	0x3c98a0f2	0.018631432
19	0x3c94be14	0.018157043
20	0x3d17a3f6	0.0370216
21	0xb9e88a5a	-0.00044353568
22	0xba873190	-0.0010314453
23	0x3cda69fd	0.026661867
24	0x3ca64f78	0.020301566
25	0x3cdb6272	0.02678034
26	0x3ac6c5b1	0.0015165118
27	0x3b5e151f	0.00338871
28	0x3c8a9880	0.01691842
29	0x3cb16ace	0.021657374
30	0x3cea7ed7	0.028624935
31	0x3b2de7bc	0.002653583

stages.0.conv.norm1d.running_var f4 [32]
0	0x3e7901bf	0.24317072
1	0x3ea0318b	0.31287798
2	0x3e7c3041	0.24627782
3	0x3ea04ba3	0.31307706
4	0x3e817538	0.25284743
5	0x3e860874	0.26178324
6	0x3e9a5436	0.30142373
7	0x3e72b013	0.2369998
8	0x3ea0bd5a	0.31394464
9	0x3e7521bd	0.23938651
10	0x3e8bc502	0.27298743
11	0x3e98f959	0.29877737
12	0x3e6b78d7	0.22995315
13	0x3ea4230b	0.32057986
14	0x3e775880	0.24154854
15	0x3e90808a	0.28223068
16	0x3e990e73	0.29893836
17	0x3e6bf464	0.23042446
18	0x3e9f9b58	0.31173205
19	0x3e77cc3f	0.24199007
20	0x3e9b4116	0.30323094
21	0x3e938ca4	0.28818238
22	0x3e6d3868	0.23166049
23	0x3ea47e9a	0.3212784
24	0x3e6f2862	0.23355249
25	0x3e9eb82d	0.3099989
26	0x3e8dcf73	0.27697334
27	0x3e75cbbd	0.24003501
28	0x3ea1b040	0.3157978
29	0x3e6d9045	0.23199566
30	0x3ea3f617	0.3202369
31	0x3e863005	0.2620851

stages.0.conv.conv2d.weight f4 [32, 2, 3, 3]
0	0xbc3ec143	-0.011642757
1	0x3e2da4e9	0.1695744
2	0x3d3cb4dc	0.04607092
3	0x3c4e5ce8	0.012595393
4	0xbd9f8535	-0.07789079
5	0xbbe43ada	-0.0069650235
6	0xbda108d0	-0.07863009
7	0x3e187353	0.14887743
8	0x3d988c1b	0.07448598
9	0x3dd0e853	0.10200562
10	0xbdb1c117	-0.08679407
11	0xbc637d30	-0.0138848275
12	0xbdf3b6fb	-0.11900135
13	0x3e29ca3e	0.16581056
14	0x3e18b142	0.14911368
15	0xbd2d73ec	-0.04234688
16	0xbe1c7f19	-0.15282859
17	0xbb1138d8	-0.0022159126
18	0x3e20779a	0.15670624
19	0xbcfa202a	-0.030532915
20	0x3e0877b1	0.13326909
21	0xbda16027	-0.07879668
22	0x3e537d86	0.20653352
23	0x3e42de5a	0.19030133
24	0xbe15e6a2	-0.1463876
25	0x3e61d0b6	0.22052273
26	0x3e57e139	0.2108201
27	0xbbdc21aa	-0.0067178803
28	0xbe3c512d	-0.18390341
29	0xbd8d1045	-0.06887869
30	0x3e0b8918	0.13626516
31	0x3d054507	0.032536533
32	0x3e06ce38	0.13164604
33	0xbe698f63	-0.22808604
34	0xbda88778	-0.082289636
35	0x3e5aa851	0.2135327
36	0xbe6ad3b8	-0.22932327
37	0x3e5dcf0c	0.21661013
38	0x3ab2caa7	0.0013640717
39	0x3d2f0749	0.042731557
40	0x3e3638ca	0.17795101
41	0xbe2da870	-0.16958785
42	0xbdd3b810	-0.103378415
43	0xbe1c7476	-0.15278801
44	0x3cf130f3	0.029442286
45	0xbd2f2ebd	-0.042769182
46	0xbb1e7b91	-0.0024182538
47	0x3d0be30a	0.03415207
48	0xbe0b4889	-0.13601889
49	0xbc8f131a	-0.017465163
50	0x3da0a13d	0.07843254
51	0xbda91565	-0.08256034
52	0xbe35b477	-0.17744623
53	0xbded5ef7	-0.11590379
54	0x3b44b29d	0.0030013688
55	0x3dcab88e	0.09898482
56	0x3d89b95c	0.067248076
57	0x3cbaa065	0.02278156
58	0xbe5540ae	-0.20825455
59	0xbd052351	-0.032504383
60	0xbe03d790	-0.128752
61	0x3cd9eb8b	0.026601573
62	0xbcac8769	-0.021060662
63	0xbd964256	-0.07336871
64	0xbde30770	-0.11085403
65	0xbda0b1cd	-0.07846413
66	0x3e49b82c	0.19699162
67	0xbe18f89d	-0.14938588
68	0xbe0ce88a	-0.13760582
69	0xbd32846a	-0.04358331
70	0xbe215088	-0.15753376
71	0x3c494491	0.012284414
72	0xbb9b2dcd	-0.0047356845
73	0xbe57ab48	-0.21061432
74	0xbe41ed51	-0.18938185
75	0xbdd31050	-0.10305846
76	0xbdc77408	-0.09738928
77	0xbd114ada	-0.035471775
78	0xbdefa386	-0.117011115
79	0x3e13c1b2	0.14429358
80	0x3d9ae5d1	0.07563365
81	0xbe5c915b	-0.21539824
82	0x3e3853de	0.18000743
83	0xbe11c440	-0.1423502
84	0x3d637536	0.055531703
85	0x3d2bcb09	0.041941676
86	0x3d491daa	0.049100555
87	0xbde73516	-0.11289422
88	0xbda1f220	-0.0790751
89	0x3df8d6ae	0.12150322
90	0x3d745373	0.059649896
91	0xbcb94f3f	-0.022620795
92	0x3d8e23cc	0.069404215
93	0x3e172d06	0.14763269
94	0xbdd6dbda	-0.10491152
95	0x3e1281e5	0.14307363
96	0xbda11258	-0.07864827
97	0x3e034c22	0.12822011
98	0xbc757047	-0.014980382
99	0x3cfc775a	0.03081863
100	0x3e3e4378	0.18580425
101	0x3dd9f202	0.106418625
102	0xbe4db677	-0.20089136
103	0xbe7849ac	-0.24246854
104	0x3e066ccc	0.1312744
105	0x3e534391	0.20631243
106	0xbd554f23	-0.052077424
107	0x3e6401a9	0.22266258
108	0xbdc1ec8e	-0.09468947
109	0xbde3a514	-0.111154705
110	0xbe43f662	-0.19136956
111	0xbdc5d85f	-0.0966041
112	0x3e646775	0.2230509
113	0xbcd977b1	-0.026546331
114	0xbe263855	-0.16232426
115	0xbe268cef	-0.162647
116	0xbdeae61d	-0.11469672
117	0xbd1aa1b3	-0.037751865
118	0xbe2244a8	-0.15846503
119	0x3a790c6f	0.0009500449
120	0x3ba2a8df	0.0049639787
121	0x3d95b25d	0.07309411
122	0xbe4ef91e	-0.20212218
123	0xbdeb4359	-0.11487455
124	0x3c3290ed	0.010898811
125	0xbe55c4fd	-0.20875926
126	0xbe49fab0	-0.19724536
127	0xbce48e4f	-0.02789989
128	0x3e465cfd	0.1937141
129	0xbe667254	-0.2250455
130	0x3e23f440	0.16011143
131	0x3e270814	0.16311675
132	0x3e46291e	0.19351622
133	0x3dff3456	0.12461154
134	0x3dadf4bf	0.08493947
135	0xbe45ee17	-0.19329105
136	0x3dc84a43	0.09779789
137	0xbdc3fc89	-0.09569652
138	0xbe05b9af	-0.13059114
139	0x3e3796ba	0.17928591
140	0x3d5875dd	0.05284678
141	0xbe531887	-0.20614825
142	0x3d4cc521	0.049992684
143	0xbdd8238c	-0.10553655
144	0x3db345df	0.08753561
145	0x3e6040d2	0.21899727
146	0xbe5d4423	-0.21608023
147	0xbe0ee9a7	-0.13956319
148	0xbd619a50	-0.055078804
149	0xbe335add	-0.1751513
150	0x3d484720	0.048895955
151	0x3e781503	0.24226765
152	0xbe20d073	-0.15704517
153	0xbe207912	-0.15671185
154	0xbe0093a8	-0.12556326
155	0xbce1988e	-0.027538564
156	0xbe5d8109	-0.21631254
157	0xbe49559b	-0.19661562
158	0x3e47fe64	0.19530636
159	0xbe174224	-0.14771324
160	0xbdda2a18	-0.1065256
161	0xbd952ba5	-0.07283715
162	0x3dd76bbf	0.10518598
163	0x3e27e67e	0.1639652
164	0x3d950a2e	0.07277332
165	0x3e5da635	0.21645434
166	0x3e096cd6	0.13420424
167	0x3dcb0033	0.099121474
168	0x3e38e184	0.18054777
169	0xbe235b5d	-0.15952821
170	0xbe0be731	-0.13662411
171	0x3e28417a	0.16431227
172	0xbe4c48e4	-0.1994968
173	0x3d7b573e	0.061362498
174	0xbe1feb6c	-0.1561715
175	0xbe61bb27	-0.22044049
176	0x3c48ce7b	0.01225626
177	0xbddde09e	-0.10833858
178	0x3d4b5bef	0.04964822
179	0xbd7ac1d0	-0.06121999
180	0xbe4896f8	-0.1958884
181	0xbcb95b2d	-0.022626484
182	0x3e0f8ee1	0.14019348
183	0xbc246e3f	-0.01003605
184	0x3e539796	0.20663294
185	0xbdf41f76	-0.11920063
186	0x3e3752c1	0.17902662
187	0x3e465fa9	0.19372429
188	0xbd5668cf	-0.052346047
189	0x3e329af4	0.17441922
190	0xbe5bde23	-0.21471457
191	0xbb891f03	-0.004184605
192	0x3dbf83f3	0.09351339
193	0xbdf99d41	-0.12188197
194	0xbe006c01	-0.125412
195	0x3dddb6bf	0.10825872
196	0xbe7fc5e5	-0.24977835
197	0x3e32145a	0.17390576
198	0xbcafe702	-0.021472458
199	0xbe1359b3	-0.14389686
200	0x3db74370	0.089484096
201	0xbcf92364	-0.030412383
202	0xbe50f789	-0.20406927
203	0x3e431773	0.19051914
204	0x3dd318bd	0.10307453
205	0xbe415d21	-0.18883182
206	0x3d32c864	0.04364814
207	0x3e4d09f5	0.2002333
208	0x3e13c15f	0.14429234
209	0x3d8e554c	0.06949863
210	0x3df91552	0.1216227
211	0x3dd4128a	0.103550985
212	0xbd8b1722	-0.067915216
213	0xbd877287	-0.06613641
214	0xbd1a9b49	-0.037745748
215	0x3c9a4c23	0.018835133
216	0xbdc38752	-0.09547295
217	0xbda6df13	-0.08148017
218	0xbbcf4925	-0.006325858
219	0xbe533f7f	-0.2062969
220	0x3cd974d0	0.026544958
221	0x3e6e9ea0	0.23302698
222	0x3e355a18	0.1771015
223	0xbde4dfce	-0.111755
224	0x3e01ca90	0.12674928
225	0xbe5b8a69	-0.21439518
226	0xbdc7bec2	-0.09753181
227	0xbe265692	-0.16243961
228	0xbe42085e	-0.18948504
229	0xbda21788	-0.079146445
230	0xbe09cf25	-0.13457926
231	0xbddf126e	-0.10892187
232	0x3e3c7a38	0.18405998
233	0x3e4c68af	0.19961809
234	0xbc9babd8	-0.01900284
235	0x3d679f86	0.056548618
236	0x3e2c337e	0.16816518
237	0xbe40e298	-0.18836439
238	0x3d10a975	0.035317857
239	0xbe222873	-0.15835743
240	0xbe07a9d3	-0.13248377
241	0x3d99848b	0.07495984
242	0xbe299a6a	-0.1656281
243	0xbd7fb7bf	-0.062431093
244	0xbd9b33e9	-0.075782605
245	0xbe562aa5	-0.20914705
246	0x3e6384df	0.22218655
247	0x3df75546	0.120768115
248	0xbd695636	-0.056966983
249	0xbdd82260	-0.105534315
250	0x3e5dafce	0.21649095
251	0x3e2fbc97	0.17161785
252	0xbd803069	-0.062592335
253	0x3d61169b	0.0549532
254	0xbbcd623c	-0.006267814
255	0xbe218a51	-0.1577542

stages.0.conv.conv2d.bias f4 [32]
0	0x3cbff60c	0.023432754
1	0xbe06406f	-0.13110517
2	0xbd3f9217	-0.04677018
3	0x3d515f38	0.0511162
4	0xbda9f4d6	-0.08298652
5	0xbe779544	-0.24178034
6	0x3e3b4b76	0.18290505
7	0x3e5b6dc3	0.2142859
8	0xbe6fb466	-0.2340866
9	0xbce9b0c4	-0.028526671
10	0x3e461f0b	0.1934778
11	0xbe6cb295	-0.23114999
12	0x3cc62c20	0.024190962
13	0x3e799989	0.24374975
14	0x3b4dceee	0.0031403857
15	0xbe0dc6fc	-0.13845438
16	0x3e19ac73	0.1500719
17	0x3d102360	0.035189986
18	0x3e0c8807	0.13723765
19	0x3d25405c	0.04034458
20	0x3e1b5860	0.15170431
21	0xbd635c7a	-0.055508114
22	0xbded6464	-0.115914136
23	0x3e3b893a	0.18314067
24	0xbd82bd40	-0.06383753
25	0xbe05e0bf	-0.13074015
26	0x3e5ae272	0.21375445
27	0xbe52cee5	-0.20586737
28	0x3e1a6bb0	0.15080142
29	0xbdce51ce	-0.10074197
30	0x3c1306df	0.008973806
31	0x3c023094	0.007946152

stages.0.conv.conv1d.weight f4 [32, 2, 3]
0	0xbd5a110c	-0.053238913
1	0x3cb2f1cc	0.021843813
2	0xbeb1e7fc	-0.34747303
3	0x3ec8495f	0.39118478
4	0xbd1310f4	-0.03590484
5	0x3e7ccd8d	0.24687786
6	0x3da4b712	0.080427304
7	0xbeaf73dd	-0.34268084
8	0xbe694906	-0.22781762
9	0x3ea71436	0.32632607
10	0x3e3069cf	0.17227863
11	0xbe1a9bbb	-0.15098469
12	0x3e76255a	0.24037686
13	0xbca0959d	-0.019602591
14	0xbdbb69d7	-0.09151047
15	0xbddd3b74	-0.108023554
16	0x3e2e8d06	0.17045984
17	0x3bcc8341	0.0062412326
18	0x3e74262d	0.23842688
19	0xbc298dc4	-0.010348741
20	0xbe09b7e8	-0.13449061
21	0xbe098233	-0.13428573
22	0x3ebaa849	0.36456516
23	0x3ea15b89	0.31515148
24	0xbddf5494	-0.10904804
25	0xbebb56c8	-0.36589646
26	0xbd4bef04	-0.04978849
27	0x3db7e294	0.08978763
28	0xbea3cea5	-0.31993595
29	0x3dff967b	0.12479874
30	0xbea68c89	-0.32529095
31	0x3e33ec30	0.17570567
32	0x3e5553cf	0.20832752
33	0x3e8d1a21	0.27558997
34	0xbea30f3f	-0.3184757
35	0xbecafd14	-0.39646208
36	0x3e16beaa	0.1472117
37	0x3e81ef7d	0.25378028
38	0x3e897d6a	0.26853496
39	0xbe4906ca	-0.19631496
40	0xbe68f924	-0.2275129
41	0x3dd782a6	0.10522966
42	0x3ea3cca3	0.31992063
43	0x3ccf3887	0.025295509
44	0xbe97d1ae	-0.2965216
45	0x3e2621a4	0.1622377
46	0xbdeeac60	-0.11653972
47	0xbdbe0e20	-0.09280038
48	0x3e51560e	0.20442984
49	0x3eca670b	0.3953174
50	0xbe862a2f	-0.2620406
51	0x3dcf0d68	0.10109979
52	0xbd87f827	-0.06639128
53	0xbd09904b	-0.033584874
54	0xbeacdce9	-0.3376229
55	0xbebb418e	-0.36573452
56	0x3d009319	0.031390283
57	0x3d35df88	0.04440263
58	0x3eb8c50f	0.36087844
59	0xbe500632	-0.20314863
60	0x3e113900	0.141819
61	0xbdada6d4	-0.084790856
62	0xbe910dbc	-0.2833079
63	0x3e7da599	0.24770202
64	0xbdb70a94	-0.089375645
65	0xbde89d6b	-0.1135815
66	0xbdfea7ce	-0.1243435
67	0xbe8d7cc5	-0.27634254
68	0x3e8959e2	0.26826388
69	0xbeb91666	-0.361499
70	0x3e1be652	0.15224579
71	0xbebed6f2	-0.37273365
72	0x3e51f2e8	0.20502818
73	0xbe7828ef	-0.24234365
74	0x3ea4ed55	0.3221232
75	0xbcb781c8	-0.022400752
76	0x3e8233b7	0.2543008
77	0xbe4d5262	-0.20050958
78	0x3eae5859	0.3405178
79	0x3e2cf19c	0.16889042
80	0xbed126e1	-0.40849975
81	0x3d18534f	0.037188824
82	0x3e1752f8	0.14777744
83	0xbec0d76e	-0.3766436
84	0xbe82e09c	-0.25561988
85	0xbe3874bf	-0.18013285
86	0x3e2c5f94	0.16833335
87	0x3e235954	0.15952045
88	0xbea4e2a3	-0.3220416
89	0xbe563e5f	-0.2092223
90	0xbe77774b	-0.241666
91	0xbcbbd6c2	-0.022929553
92	0x3d72c5ec	0.059270784
93	0xbd3b815e	-0.04577767
94	0xbed04a6c	-0.4068178
95	0xbec507bf	-0.38482472
96	0x3caa36b1	0.020778032
97	0xbe51eaff	-0.204998
98	0xbe4e1d6c	-0.20128411
99	0xbe9a1cf4	-0.30100214
100	0xbe0b8fa3	-0.13629012
101	0x3d08c850	0.033394158
102	0x3da6a070	0.0813607
103	0xbe8867ae	-0.266416
104	0xbe8b72bd	-0.27235976
105	0xbe1f5e8c	-0.1556341
106	0xbebf2aa0	-0.37337208
107	0x3e14dd6d	0.14537592
108	0x3e9d57ff	0.30731198
109	0x3e8e1780	0.27752304
110	0x3e084743	0.13308434
111	0xbe0760ea	-0.13220564
112	0xbebe561e	-0.37175077
113	0xbe9cd217	-0.30629036
114	0x3ca155a1	0.019694151
115	0x3e73ea1b	0.23819773
116	0x3e0fb146	0.14032468
117	0x3e393858	0.180879
118	0xbd5c99ce	-0.053857617
119	0xbcdbf028	-0.026847914
120	0x3da19e04	0.07891467
121	0xbe56c177	-0.20972238
122	0xbdee0f2e	-0.11623989
123	0xbe6f587b	-0.23373596
124	0x3ea7aeca	0.3275054
125	0xbeb81800	-0.3595581
126	0xbcf0b17c	-0.029381506
127	0xbe9a3993	-0.3012205
128	0xbdf13deb	-0.11779388
129	0x3e0606a2	0.13088468
130	0x3e105f85	0.14098938
131	0x3d87c6c4	0.066297084
132	0xbdebd6c8	-0.11515576
133	0xbe9d1deb	-0.30686888
134	0x3b67a72e	0.003534745
135	0xbeaf3691	-0.34221318
136	0x3e441d75	0.19151862
137	0xbc732cf8	-0.014842264
138	0x3e42e444	0.19032389
139	0xbeb95b27	-0.36202356
140	0x3e409a71	0.18808915
141	0xbe2c81fb	-0.16846459
142	0x3e2da6d7	0.16958176
143	0xbe892380	-0.26784897
144	0x3e0d2956	0.137853
145	0xbe779e9f	-0.24181603
146	0x3e9eb3b2	0.30996472
147	0x3ec011a1	0.3751345
148	0xbe088dd5	-0.13335355
149	0xbe5495dd	-0.20760293
150	0xbeb02cb0	-0.34409094
151	0xbe7b37dc	-0.24533027
152	0xbd1a6ddc	-0.037702426
153	0xbe2c5fa9	-0.16833366
154	0x3e9e8185	0.3095819
155	0x3eac0f71	0.3360553
156	0x3ec2cce8	0.38046956
157	0xbd9a468b	-0.07532986
158	0x3c85447d	0.01626801
159	0x3e69ad1e	0.22819945
160	0xbd862426	-0.065498635
161	0xbd404e68	-0.046949774
162	0xbe5d33b4	-0.21601754
163	0xbed04c83	-0.40683374
164	0x3cff45dd	0.031161243
165	0xbe6405b6	-0.22267804
166	0xbeb9de8e	-0.36302608
167	0xbb7a02dc	-0.0038148677
168	0x3d98b36d	0.07456098
169	0xbe03253c	-0.12807173
170	0x3ec0b4d3	0.37637958
171	0x3e7a294b	0.24429815
172	0xbd52349c	-0.051319703
173	0xbe9a9bd4	-0.30197012
174	0xbe961422	-0.29312235
175	0x3e356534	0.17714387
176	0x3e804b94	0.25057662
177	0x3cc3fae5	0.023923347
178	0x3ea1e090	0.3161664
179	0x3e9f0cb5	0.31064382
180	0x3e58b44d	0.2116253
181	0x3ea18ccf	0.3155274
182	0xbe029b79	-0.1275462
183	0x3e419319	0.1890377
184	0xbe96abce	-0.29427952
185	0xbd00b6c2	-0.03142429
186	0x3cadfdbe	0.021239158
187	0xbe81ec85	-0.25375763
188	0xbeba888d	-0.36432305
189	0xbeae7bb9	-0.34078768
190	0x3e4c6263	0.19959407
191	0x3eb27100	0.34851837

stages.0.conv.conv1d.bias f4 [32]
0	0x3c84b7c1	0.016200902
1	0xbe6203dc	-0.22071785
2	0xbe8436e5	-0.2582313
3	0x3d6f7c5e	0.058468215
4	0xbe981039	-0.29699877
5	0xbc14bff5	-0.009078969
6	0xbe9e39e3	-0.3090354
7	0xbc802f16	-0.015647452
8	0xbde792f3	-0.11307325
9	0x3ba050f2	0.004892462
10	0xbebd9887	-0.37030432
11	0x3ead8afd	0.33895102
12	0xbed13dde	-0.40867513
13	0xbe2f5c33	-0.17125015
14	0xbcf991d6	-0.030465048
15	0xbe3a1286	-0.18171129
16	0xbe0dbe16	-0.13842043
17	0xbea98b97	-0.3311431
18	0x3eb4ac74	0.3528782
19	0xbe1e9b38	-0.15488899
20	0x3e144a8e	0.14481565
21	0xbe20878e	-0.1567671
22	0xbe8450c9	-0.25842884
23	0xbe947304	-0.28994
24	0xbe1b1bbb	-0.15147297
25	0xbe45ab87	-0.19303714
26	0xbd8e2c88	-0.069420874
27	0xbebe47b2	-0.37164074
28	0x3daab3d5	0.083350815
29	0xbe064138	-0.13110816
30	0xbdda3c09	-0.10655982
31	0xbd1ff4b4	-0.039051726

stages.0.ff.0.weight f4 [32, 32]
0	0x3e1751d0	0.14777303
1	0x3cf5e63a	0.030017007
2	0x3dad7c33	0.08470955
3	0xbdba1a35	-0.0908703
4	0xbe476a1b	-0.1947407
5	0xbd1e644d	-0.038669873
6	0x3e00801e	0.12548873
7	0xbe34313e	-0.1759691
8	0xbd62dc74	-0.05538602
9	0xbd8dfe40	-0.0693326
10	0x3d6c04e6	0.05762186
11	0xbe21ba5b	-0.15793745
12	0x3db14dd6	0.08657424
13	0x3d78d170	0.06074661
14	0xbe10a76f	-0.14126371
15	0xbd9cef20	-0.07662797
16	0x3cab4888	0.020908609
17	0x3d57583b	0.052574378
18	0xbdd1de43	-0.10247471
19	0xbe09a986	-0.13443574
20	0xbb9391cb	-0.004503464
21	0x3e2eefa4	0.17083603
22	0x3d518c53	0.051159214
23	0xbda2713d	-0.07931755
24	0xbdf3b2a6	-0.11899309
25	0x3e120c31	0.14262463
26	0xbd110230	-0.035402477
27	0x3d95f8e5	0.073228635
28	0xbca0eb99	-0.019643592
29	0x3db9ebbb	0.09078165
30	0xbdd7c303	-0.105352424
31	0xbdc5826e	-0.09644018
32	0xbd1a61ba	-0.037690856
33	0xbdb5a6bb	-0.08869692
34	0xbe07d9dd	-0.13266702
35	0x3dfc0ccd	0.12307129
36	0x3d83a693	0.06428256
37	0xbd8c6d32	-0.06856765
38	0xbc675f15	-0.01412179
39	0x3de26003	0.11053469
40	0xbd25252a	-0.040318646
41	0xbe18c9c7	-0.14920722
42	0x3d1a515f	0.037675258
43	0xbdfb72c1	-0.12277747
44	0xbda5abcf	-0.080894105
45	0xbadd70e8	-0.0016894611
46	0x3c2ea586	0.010659581
47	0x3e132b6e	0.14372036
48	0x3d3833fa	0.044971444
49	0xbdb71148	-0.08938843
50	0x3d36f20a	0.04466442
51	0x3a86c2c0	0.0010281429
52	0x3e03f8c0	0.1288786
53	0x3d9fd08e	0.078034505
54	0xbe13d956	-0.14438376
55	0x3e40dc70	0.1883409
56	0xbd56fb0b	-0.052485507
57	0xbd8c944c	-0.06864223
58	0xbd90c1fd	-0.0706825
59	0xbe246647	-0.1605464
60	0x3d247d88	0.04015878
61	0xbd27356c	-0.04082243
62	0xbd00ff2e	-0.03149336
63	0xbdfa74f3	-0.122293375
64	0x3da9f836	0.082992956
65	0x3dae7a0c	0.08519372
66	0x3d183384	0.037158504
67	0xbde3274c	-0.1109148
68	0xbd4593f5	-0.048236806
69	0x3d3b743c	0.045765147
70	0x3d00d39b	0.031451803
71	0x3e2f1cce	0.17100832
72	0x3d92f099	0.071747966
73	0xbe2a5f51	-0.16637923
74	0x3ddb8cf7	0.10720246
75	0xbd8936d1	-0.066999085
76	0x3ded41ca	0.11584814
77	0xbcb93ee7	-0.022613002
78	0x3e3ddc40	0.1854105
79	0x3dc6b038	0.0970158
80	0xbe277e5f	-0.163568
81	0x3dd8ea0d	0.10591517
82	0xbcb54d33	-0.022131538
83	0xbd9abaa5	-0.07555131
84	0x3e3dbacf	0.18528293
85	0x3cd88a28	0.026433066
86	0xbbe9274f	-0.0071152817
87	0x3d80ab7f	0.0628271
88	0xbcaaf16a	-0.020867068
89	0xbe1c75f8	-0.15279377
90	0x3e29be5f	0.16576527
91	0xbe0904b5	-0.13380702
92	0x3d45408e	0.048157267
93	0xbce4e0cd	-0.027939225
94	0x3d23710a	0.039902724
95	0xbc8ecc68	-0.017431453
96	0xbe10f14d	-0.14154549
97	0x3c2870e1	0.010280819
98	0xbdc1fe4c	-0.094723314
99	0x3d99ba26	0.07506208
100	0x3afc0195	0.0019226546
101	0xbe138ee8	-0.14409983
102	0x3e41f3b0	0.18940616
103	0x3d5724b7	0.05252525
104	0x3e054af7	0.13016878
105	0x3e2da5e3	0.16957812
106	0xbce89c46	-0.02839483
107	0xbe168d2d	-0.14702292
108	0x3d2ddfc4	0.042449728
109	0x3e279095	0.16363747
110	0xbe06c894	-0.13162452
111	0x3e00f963	0.12595133
112	0x3dd3e13c	0.103456944
113	0x3e07a512	0.13246563
114	0xbe236c2f	-0.15959238
115	0x3e01b2ef	0.12665914
116	0xbd796859	-0.06089053
117	0x3c18123d	0.009281692
118	0x3cb8ada4	0.022543736
119	0xbd4da640	-0.050207376
120	0x3df1fe7b	0.118161164
121	0xbe280a3f	-0.16410159
122	0xbe0975f7	-0.13423906
123	0xbe338c28	-0.17533934
124	0x3c8da51a	0.01729064
125	0x3e20f2fd	0.15717693
126	0xbc99822b	-0.018738827
127	0xbc043646	-0.00806958
128	0x3d9c7e05	0.07641224
129	0xba74557c	-0.00093205995
130	0xbe18ba6e	-0.14914867
131	0x3e06981b	0.13143961
132	0x3defffe9	0.11718733
133	0x3b9aa609	0.0047195
134	0xbdc8ce6f	-0.09804999
135	0x3e13874f	0.14407085
136	0x3de58252	0.11206497
137	0x3e269e4a	0.1627132
138	0x3df8e065	0.12152175
139	0x3e3e5e05	0.18590553
140	0x3d9ea31a	0.07745953
141	0xbd475451	-0.048664395
142	0x3e100dbf	0.14067744
143	0x3c2fc91b	0.0107291
144	0xbe0bf1c9	-0.13666452
145	0xbe14672b	-0.1449248
146	0x3c80c512	0.01571897
147	0xbb5486b1	-0.0032428915
148	0xbdb7dcd2	-0.08977665
149	0xbe0562fe	-0.13026044
150	0x3d14f4eb	0.036366384
151	0xbcaf0bac	-0.02136787
152	0xbe01f8ae	-0.1269252
153	0x3d90bc5e	0.07067178
154	0x3e33f984	0.17575651
155	0xbe457513	-0.19282942
156	0xbde1232b	-0.10993036
157	0x3e2e0dc6	0.16997442
158	0x3cff956a	0.031199176
159	0x3ce0896e	0.027409282
160	0xbd091214	-0.033464506
161	0x3e39f3f6	0.1815947
162	0x3bf194a5	0.007372456
163	0xbdef9129	-0.11697609
164	0xbe1ddf94	-0.1541732
165	0x3cd4ff19	0.026000546
166	0x3ccf08af	0.025272695
167	0xbc740e34	-0.014895964
168	0x3e0a2227	0.1348959
169	0xbcb46d05	-0.02202464
170	0x3dea4698	0.11439246
171	0x3d84ca10	0.06483853
172	0x3dcc289e	0.099686846
173	0xbc073169	-0.008251526
174	0xbc6fe39b	-0.014641668
175	0xbd94ce87	-0.072659545
176	0xbe0a57a6	-0.13509998
177	0xbde384b5	-0.11109296
178	0xbddf572c	-0.109052986
179	0x3dfe1cca	0.12407835
180	0xbdd9aca7	-0.10628634
181	0x3e16a415	0.1471103
182	0xbdcddd39	-0.100519605
183	0xbc84ec20	-0.016225874
184	0x3dde9af9	0.108694024
185	0x3e0c49cf	0.1370003
186	0xbe075279	-0.13215055
187	0xbe05394d	-0.1301014
188	0x3e19248e	0.14955351
189	0xbdc1e7e8	-0.09468061
190	0xbe37500e	-0.17901632
191	0x3e1d877b	0.15383713
192	0xbc792b4f	-0.0152080795
193	0xbc6bf6ae	-0.014402075
194	0x3d896065	0.06707839
195	0xbe13c1c7	-0.14429389
196	0xbcd466ab	-0.025927862
197	0x3d351c29	0.04421631
198	0x3d2b6d26	0.04185214
199	0x3cd27f18	0.025695369
200	0xbd91556f	-0.07096373
201	0x3e163f4e	0.14672586
202	0x3dc21e49	0.09478433
203	0x3d5790a9	0.052628193
204	0xbe045e49	-0.12926592
205	0x3de09459	0.10965795
206	0xbcad980c	-0.021190666
207	0x3b721724	0.0036940062
208	0x3e0d1f5d	0.13781495
209	0x3dc51cff	0.09624671
210	0x3cc6e30f	0.024278192
211	0xbc3fdad1	-0.011709885
212	0x3e1fb4dd	0.15596338
213	0x3d405ead	0.04696529
214	0xbe2dd81a	-0.16976967
215	0xbc8fd8e5	-0.017559478
216	0xbdabb173	-0.08383455
217	0xbdea25aa	-0.11432965
218	0xbd6379ab	-0.055535953
219	0x3e230e0d	0.15923329
220	0x3e33c2b1	0.17554738
221	0x3dfc29a8	0.12312633
222	0x3e07223e	0.13196656
223	0x3e128119	0.1430706
224	0xbdab5fe4	-0.08367899
225	0x3df9a430	0.121895194
226	0xbe3573c3	-0.17719941
227	0xbdbd7723	-0.09251239
228	0xbd19dd10	-0.037564337
229	0xbe133e56	-0.14379248
230	0x3db3f4c7	0.08786922
231	0x3e4e0b7e	0.20121571
232	0xbe05ca2f	-0.13065408
233	0x3d85ce4b	0.06533488
234	0x3cdb4b24	0.026769228
235	0xbdfd22e0	-0.123601675
236	0xbd4948f2	-0.04914183
237	0x3d3b00f2	0.0456552
238	0xbd09e157	-0.033662166
239	0xbe357bef	-0.17723058
240	0x3d802b71	0.06258286
241	0xbdf1d854	-0.118088394
242	0x3de84444	0.11341146
243	0x3d479248	0.04872349
244	0x3e3b62fb	0.18299477
245	0x3daf8f96	0.08572309
246	0x3cb9c301	0.022675993
247	0x3cef4e81	0.029212238
248	0xbdf060e4	-0.117372304
249	0x3d1c987b	0.038231354
250	0x3e02a342	0.1275759
251	0x3e1305e5	0.14357717
252	0x3cec94c0	0.028879523
253	0xbd55d4c2	-0.052204855
254	0x3e2f2fc2	0.17108062
255	0x3c97179e	0.018443879

stages.0.ff.0.bias f4 [32]
0	0x3e260fff	0.1621704
1	0x3db5be02	0.08874132
2	0xbe0ac9cf	-0.13553546
3	0xbd3959f3	-0.045251798
4	0x3e12e023	0.14343314
5	0x3dc0d31f	0.09415268
6	0xbd4e522e	-0.05037134
7	0xbd5e8310	-0.05432421
8	0x3d9d5860	0.07682872
9	0x3cef6cd6	0.029226702
10	0x3e1c6904	0.15274435
11	0x3e0e5549	0.13899721
12	0xbe1b3fc2	-0.1516104
13	0xbce7cb49	-0.028295176
14	0x3d59cc32	0.05317325
15	0x3c934a50	0.01797977
16	0x3e1ef781	0.15524103
17	0x3e404421	0.18775989
18	0xbdcb96d8	-0.099408805
19	0xbc5b281f	-0.013376265
20	0xbe0296df	-0.12752865
21	0x3e169ca2	0.14708188
22	0x3e3431f0	0.17597175
23	0xbda8cc26	-0.08242063
24	0x3ca91e64	0.020644374
25	0xbd4d2ef0	-0.05009359
26	0x3cb0a877	0.021564705
27	0xbe169021	-0.14703418
28	0x3e104864	0.14090115
29	0x3e004f29	0.12530197
30	0x3d2fee3f	0.04295182
31	0x3e2061d2	0.15662315

stages.0.ff.3.weight f4 [32, 32]
0	0xbe1ecfef	-0.15509008
1	0xbdd352b9	-0.103185125
2	0xbd51da64	-0.051233664
3	0xbe203958	-0.15646875
4	0xbe187046	-0.14886579
5	0x3c9195e8	0.017771676
6	0xbd6b8037	-0.057495322
7	0x3ccffe7b	0.0253899
8	0x3e0fdb5d	0.14048524
9	0xbe24c6d1	-0.16091467
10	0x3b70e259	0.0036756007
11	0x3cf8660c	0.030322097
12	0x3d1fa737	0.038977828
13	0x3bf18da4	0.007371621
14	0x3bfd70b7	0.007734384
15	0x3e2b89e7	0.16751824
16	0x3e1fda25	0.1561056
17	0xbde26eb1	-0.11056269
18	0xbc866e16	-0.016409915
19	0x3dca2e20	0.09872079
20	0x3e01dda1	0.12682201
21	0xbd3ca58e	-0.046056323
22	0x3d0ed426	0.03487029
23	0xbd3eb1c4	-0.04655625
24	0xbbcb315a	-0.0062009515
25	0x3dea281f	0.11433434
26	0xbc13c56b	-0.009019236
27	0x3d032c79	0.032024834
28	0xbdb99e72	-0.09063424
29	0xbd15bbe8	-0.036556154
30	0xbb3772b2	-0.0027991948
31	0x3df089da	0.11745043
32	0xbd041f06	-0.03225615
33	0xbdebad5a	-0.115076736
34	0xbd55de55	-0.052213985
35	0x3c255712	0.01009156
36	0xbe063325	-0.13105448
37	0x3df41a4b	0.119190775
38	0x3df9375e	0.121687636
39	0xbd304f10	-0.04304415
40	0x3e071d41	0.13194753
41	0x3da19318	0.07889384
42	0xbe26b43f	-0.16279696
43	0x3e2ef78d	0.1708662
44	0xbd1a1899	-0.037621114
45	0x3ddc31de	0.10751699
46	0x3ca3f4c7	0.02001418
47	0xbe168f50	-0.14703107
48	0xbe09a78c	-0.1344282
49	0xbe16f400	-0.14741516
50	0xbe161735	-0.1465729
51	0xbda46e01	-0.08028794
52	0x3d9a7c07	0.075431876
53	0xbcc87975	-0.024471978
54	0x3d657941	0.05602384
55	0xbda67a44	-0.08128789
56	0x3cdc9705	0.02692748
57	0x3e013ec9	0.12621607
58	0xbd01dd90	-0.03170544
59	0x3ddfb618	0.109234035
60	0xbcd5097e	-0.026005503
61	0xbda0a7e3	-0.07844522
62	0xbc3eaeac	-0.011638325
63	0x3de7560f	0.11295711
64	0xbd5afb20	-0.053462148
65	0xbb0a06db	-0.0021061215
66	0x3d4dd226	0.05024924
67	0xbd81d630	-0.06339681
68	0x3dd62c74	0.104576975
69	0x3dad61c3	0.08465912
70	0x3e053411	0.13008143
71	0x3e0319b5	0.12802775
72	0xbd962eb8	-0.0733313
73	0xbd465664	-0.048422232
74	0x3e18b290	0.14911866
75	0xbdbd3e6e	-0.09240423
76	0xbafe3f59	-0.0019397541
77	0x3e095468	0.13411105
78	0xbe0ac9a0	-0.13553476
79	0xbdea0ecf	-0.11428606
80	0x3cc89e9b	0.024489691
81	0xbda0da0f	-0.078540914
82	0xbd83e3d1	-0.06439937
83	0x3e24a4b2	0.16078451
84	0x3dd99636	0.106243536
85	0x3e06f525	0.13179453
86	0xbd90dda9	-0.07073528
87	0x3cd79353	0.026315367
88	0xbd041283	-0.032244217
89	0x3d86521f	0.06558632
90	0xbbfa0444	-0.007629903
91	0xbd0fee79	-0.035139535
92	0x3da4d9b7	0.08049338
93	0x3dc43822	0.09581019
94	0xba7ec4bd	-0.00097186473
95	0x3c26b7af	0.0101756295
96	0x3c3ea14c	0.011635136
97	0xbdbcd2d1	-0.092198975
98	0xbdb8b136	-0.09018175
99	0x3d7b752c	0.06139104
100	0x3b401c48	0.0029313732
101	0xbdf77f81	-0.12084866
102	0x3d45f59a	0.048329927
103	0xbd1c2423	-0.0381204
104	0xbe0b309e	-0.13592765
105	0x3e2e298c	0.17008036
106	0x3e21ce24	0.15801293
107	0xbde5c333	-0.11218872
108	0x3dde23ca	0.1084667
109	0x3d4fad58	0.050702423
110	0x3e1e015d	0.15430208
111	0xbcc9d41c	-0.024637274
112	0xbc26e2ec	-0.010185938
113	0x3e28b315	0.16474564
114	0x3cc50489	0.024050014
115	0x3dac20ad	0.0840467
116	0x3d83cc2f	0.06435429
117	0x3e3e9235	0.18610461
118	0xbd865e3d	-0.06560943
119	0xbd681cdd	-0.05666815
120	0xbdc0b9cf	-0.0941044
121	0x3e3c78cc	0.18405455
122	0xbc1cf178	-0.009579055
123	0xbe1e28ec	-0.15445298
124	0x3db460cf	0.08807527
125	0xbbfbe278	-0.0076869093
126	0x3c8fb3c6	0.017541777
127	0xbc132517	-0.008981011
128	0xbe0ae62f	-0.1356437
129	0xbd5a6b8c	-0.05332522
130	0xbc94a319	-0.018144177
131	0xbd77ef6a	-0.060531057
132	0xbd8c6fce	-0.068572626
133	0xbd913444	-0.07090047
134	0x3e11a38f	0.14222549
135	0xbe16e0b5	-0.14734156
136	0x3db4c535	0.08826677
137	0x3de943e7	0.113899045
138	0x3db9d9ef	0.09074771
139	0x3dd067ad	0.101760246
140	0x3e001e9b	0.12511675
141	0x3ddada46	0.106861636
142	0xbe20e8e5	-0.15713842
143	0xbe1f887e	-0.15579411
144	0x3dc74ae7	0.09731083
145	0xbe06f07c	-0.13177675
146	0xbc93da21	-0.018048348
147	0xbdcefc0e	-0.10106669
148	0xbd5694e5	-0.05238809
149	0xbe43632a	-0.19080797
150	0x3d2b2bd1	0.041789833
151	0xbe180f7b	-0.14849655
152	0xbe0f911e	-0.14020202
153	0xbe4132f2	-0.1886709
154	0x3e0fa663	0.14028315
155	0xbe1ff447	-0.15620528
156	0x3d8b914e	0.06814824
157	0x3e2f51b6	0.17121014
158	0xbcb26c21	-0.021780076
159	0xbc9f9102	-0.019478325
160	0xbc88bfa4	-0.016692944
161	0xbbd2de2f	-0.0064351778
162	0x3dd6d6c1	0.1049018
163	0xbdb3b8f9	-0.08775515
164	0xbe1ecba2	-0.15507367
165	0xbc26a25a	-0.010170544
166	0xbe15ab7a	-0.14616194
167	0x3d863543	0.065531276
168	0x3dc5f3bb	0.096656285
169	0x3e39c5ca	0.18141857
170	0x3e12e18a	0.14343849
171	0xbdd04621	-0.10169626
172	0xbd924290	-0.07141602
173	0xbde37c9e	-0.11107753
174	0xbaac7455	-0.0013157228
175	0x3c113dc1	0.008864821
176	0x3cff761a	0.031184245
177	0xbe29524a	-0.16535297
178	0xbd4e2714	-0.050330237
179	0x3d0b77bc	0.034049734
180	0x3e0bc03a	0.13647547
181	0x3d6c606c	0.057709143
182	0x3e0308e6	0.12796363
183	0xbd50b901	-0.050957683
184	0xbd8f5ef3	-0.07000532
185	0xbe0c870a	-0.13723388
186	0x3df006fa	0.11720081
187	0x3e081fdd	0.13293405
188	0xbd36f6b2	-0.04466886
189	0xbdbeef13	-0.093229435
190	0x3d20d32d	0.039263893
191	0xbdafe5c0	-0.08588743
192	0xbd3ee8a0	-0.046608567
193	0x3d893a8f	0.06700622
194	0xbd920963	-0.071306966
195	0xbd004541	-0.031316046
196	0xbd5256b3	-0.051352214
197	0xbde58702	-0.11207391
198	0x3e106ddd	0.1410441
199	0x3d8f0c92	0.069848195
200	0x3baec168	0.0053331144
201	0x3e08a652	0.13344696
202	0x3da70020	0.08154321
203	0x3d795f2c	0.06088178
204	0x3b5d09d0	0.0033727773
205	0x3dd432d8	0.1036126
206	0x3decc926	0.115618035
207	0xbe2d6a2f	-0.16935037
208	0x3d4f54b9	0.050617907
209	0x3da6155a	0.08109541
210	0x3e015daa	0.12633386
211	0x3c302a98	0.010752343
212	0xbd8cf6b1	-0.0688299
213	0x3dd55e00	0.1041832
214	0x3c8c188f	0.017101554
215	0x3e1ae8de	0.15127894
216	0xbb1dad70	-0.0024059676
217	0x3a68b843	0.0008877555
218	0xbe0585bb	-0.13039295
219	0xbe1fa253	-0.15589266
220	0x3db7cefc	0.08975026
221	0xbde1de01	-0.11028672
222	0x3de420cb	0.11139067
223	0x3e012b15	0.1261409
224	0x3c0fe86e	0.008783443
225	0x3d3222e2	0.043490298
226	0x3d50b17a	0.050950505
227	0xbe11a476	-0.14222893
228	0x3d3f5f9e	0.046722047
229	0xbde703ac	-0.11279997
230	0xbd9bbe39	-0.076046415
231	0xbce0590f	-0.027386216
232	0xbe341420	-0.17585802
233	0x3d910d06	0.07082562
234	0xbdd280ab	-0.10278448
235	0x3e0d3381	0.13789178
236	0xbd299764	-0.041404143
237	0xbd0013a6	-0.03126874
238	0xbe38b0fb	-0.18036263
239	0x3e173015	0.14764436
240	0x3ba2440b	0.004951959
241	0xbcd6585c	-0.02616518
242	0x3c26685f	0.01015672
243	0xbd5a5b6e	-0.05330985
244	0x3c0fbed9	0.008773529
245	0xbc866b2d	-0.016408527
246	0x3e1a67c0	0.1507864
247	0x3cc53ce8	0.024076894
248	0x3e176706	0.14785394
249	0xbc271c90	-0.010199681
250	0x3da26f59	0.07931394
251	0xbdb1c971	-0.08681
252	0x3e0e4019	0.13891639
253	0xbda370b6	-0.07980482
254	0xbe079d9e	-0.1324372
255	0x3e07d124	0.13263375

stages.0.ff.3.bias f4 [32]
0	0x3c848217	0.016175313
1	0xbd8d30f8	-0.06894106
2	0x3c640f9a	0.013919735
3	0x3da34cae	0.0797361
4	0xbe1c5d9f	-0.15270089
5	0xbd31a56b	-0.043370645
6	0xbe00da1d	-0.12583204
7	0xbcf42512	-0.029802833
8	0x3e2471cc	0.16059035
9	0xbd79b585	-0.060964126
10	0xbe3e6505	-0.18593223
11	0xbe284f8f	-0.16436599
12	0xbe23399d	-0.15939946
13	0x3dcc0f7a	0.099638894
14	0xbe1f009f	-0.1552758
15	0xbda9bfc1	-0.08288527
16	0x3e17007c	0.14746279
17	0xbdede5cb	-0.11616095
18	0x3d9e4466	0.0772789
19	0xbe164854	-0.14676028
20	0xbde0ab68	-0.10970193
21	0xbd8d6758	-0.06904477
22	0xbdfce6a0	-0.12348676
23	0x3bbf61e8	0.0058405288
24	0x3e0df1ee	0.1386182
25	0xbd0ee6d2	-0.034888096
26	0xbceaa05d	-0.02864092
27	0xbdbd80a4	-0.09253052
28	0xbe25780c	-0.16159075
29	0xbd404c18	-0.04694757
30	0xbc438646	-0.011933869
31	0x3e2f90ff	0.17145155

stages.1.0.weight f4 [32]
0	0x3f797726	0.9744743
1	0x3f7723ed	0.96539193
2	0x3f7f0fbf	0.996334
3	0x3f8141b3	1.0098175
4	0x3f7e1c90	0.9926233
5	0x3f75fa7c	0.96085334
6	0x3f7a010a	0.97657835
7	0x3f80accc	1.0052733
8	0x3f7d1c6a	0.9887148
9	0x3f7e9f81	0.99462134
10	0x3f76d620	0.9642048
11	0x3f7ebaca	0.9950377
12	0x3f7b335b	0.9812524
13	0x3f7f2c6c	0.9967716
14	0x3f76d078	0.9641185
15	0x3f79393f	0.97352976
16	0x3f7c80e1	0.98634154
17	0x3f79dd9e	0.97603786
18	0x3f7f6ab8	0.99772215
19	0x3f7ad63e	0.9798316
20	0x3f7d82ee	0.9902791
21	0x3f7c32a5	0.9851478
22	0x3f7639ea	0.9618212
23	0x3f77f722	0.9686147
24	0x3f7c9634	0.9866669
25	0x3f809ea9	1.0048419
26	0x3f74d562	0.95638096
27	0x3f780588	0.9688344
28	0x3f7ac012	0.97949326
29	0x3f79cb92	0.9757625
30	0x3f76b233	0.9636566
31	0x3f76ab36	0.96355

stages.1.0.bias f4 [32]
0	0x3a98b2bc	0.0011649947
1	0xbcb3c5f6	-0.021944981
2	0xbc2bcb0f	-0.010485425
3	0x3c6a3523	0.014294895
4	0xbca01a4b	-0.019543787
5	0x3c30b786	0.010785943
6	0x3caad3f7	0.020853026
7	0xbc2ceee9	-0.0105550075
8	0x3b2ee288	0.0026685316
9	0x3c8268ca	0.015919108
10	0xbd08042b	-0.0332071
11	0x3bfbab27	0.007680315
12	0xbc506808	-0.0127201155
13	0x3c1c1e81	0.009528757
14	0x3d182d64	0.037152663
15	0x3c003e0a	0.007827291
16	0x3c634b05	0.0138728665
17	0x3b552d99	0.00325284
18	0xbc324b2f	-0.010882183
19	0x3c4c75d4	0.012479264
20	0xbc8ee820	-0.01744467
21	0x3b8b7105	0.0042554163
22	0xbd27170a	-0.040793456
23	0xbc980769	-0.018558221
24	0xbcb6fd74	-0.022337653
25	0xbc07ba7e	-0.008284209
26	0x3d1ba543	0.037999403
27	0xbc869803	-0.016429907
28	0xbcfe513a	-0.031044591
29	0x3bc5a186	0.006031218
30	0x3af97486	0.0019031919
31	0x3c557b9c	0.013029959

stages.1.1.weight f4 [32, 32]
0	0xbd87e936	-0.06636278
1	0x3e0fd8fc	0.14047617
2	0xbd44e887	-0.048073318
3	0xbdc0934e	-0.09403096
4	0x3de1fcb5	0.11034528
5	0x3d7f3a34	0.062311366
6	0x3d8f344b	0.06992396
7	0x3d0a4caa	0.03376452
8	0x3dc33b66	0.09532814
9	0x3d9def86	0.07711701
10	0x3d4dd3ec	0.050250933
11	0x3df07d1c	0.11742613
12	0x3e0ab419	0.13545264
13	0x3e277f07	0.16357051
14	0x3c94d0ef	0.018166034
15	0x3e05f446	0.13081464
16	0xbe1a643f	-0.15077303
17	0x3d80ca77	0.06288617
18	0xbd190d7a	-0.037366368
19	0xbd987455	-0.074440636
20	0x3df3bf61	0.11901737
21	0x3e0f39fd	0.13986965
22	0x3ccd8b5f	0.025090871
23	0xbc5490da	-0.012973988
24	0xbdb6b049	-0.089203425
25	0xbe02e934	-0.12784272
26	0x3e141f28	0.1446501
27	0x3d04bfdd	0.032409538
28	0x3dbb24b4	0.0913786
29	0x3cb3a3dd	0.021928722
30	0xbe1189fe	-0.14212796
31	0x3de30b4c	0.11086139
32	0xbdd9a2ef	-0.1062678
33	0x3dddb602	0.10825731
34	0x3dfcee54	0.12350145
35	0x3d29a31c	0.04141532
36	0x3deaf7f5	0.11473075
37	0x3bef99e3	0.007312046
38	0xbe2498ea	-0.16073957
39	0xbdd6e411	-0.10492719
40	0x3d482ed7	0.048872795
41	0xbc857f9f	-0.016296206
42	0xbd84c391	-0.06482614
43	0xbdf4a87d	-0.11946199
44	0xbd811072	-0.06301965
45	0xbe1eec49	-0.15519823
46	0x3e04dae7	0.1297413
47	0x3d98f846	0.074692294
48	0xbe2487fc	-0.16067499
49	0x3dc64549	0.09681184
50	0x3e21552e	0.1575515
51	0xbd6fdd60	-0.05856073
52	0xbda3554a	-0.07975252
53	0xbdba2412	-0.09088911
54	0xbe18103b	-0.14849941
55	0x3db097ab	0.08622678
56	0xbd97abc6	-0.0740581
57	0x3e00ffdc	0.12597603
58	0x3e18158c	0.1485197
59	0x3dbdf327	0.09274893
60	0x3d9e1b82	0.077200904
61	0x3e13aeec	0.14422196
62	0x3d02f8ad	0.031975437
63	0xbd982312	-0.07428564
64	0xbd8f19e6	-0.069873616
65	0x3e1e213e	0.15442368
66	0xbe29964b	-0.16561238
67	0xbc919d50	-0.017775208
68	0xbe1d5e1e	-0.15367934
69	0x3e108060	0.14111471
70	0xbda97299	-0.08273811
71	0xbbb6b41b	-0.0055756695
72	0x3dc0f0ce	0.0942093
73	0xbe0161b2	-0.12634924
74	0xbe2a54ec	-0.16633958
75	0xbd9ee42d	-0.07758365
76	0xbe3eb347	-0.18623076
77	0xbb15234e	-0.002275664
78	0xbd4941d4	-0.049135044
79	0x3da477fb	0.08030697
80	0x3e085c64	0.13316494
81	0xbd5c8b94	-0.05384405
82	0x3d26e3d2	0.04074461
83	0x3d11fee5	0.035643477
84	0xbd8c0b7e	-0.068381295
85	0x3e33e792	0.17568806
86	0x3d32e5dc	0.043676242
87	0xbc2d0f71	-0.010562764
88	0xbe10121d	-0.1406941
89	0xbd26fb08	-0.040766746
90	0x3d8b2a28	0.0679515
91	0xbdb56fc8	-0.08859211
92	0xbb877092	-0.0041332925
93	0x3e1bc116	0.15210375
94	0x3e0527df	0.13003491
95	0x3e180c1f	0.14848374
96	0x3dc7b88d	0.09751997
97	0x3db08fc7	0.08621173
98	0x3e137ed4	0.1440385
99	0xbdb4c5bd	-0.08826778
100	0x3d2f28cd	0.04276352
101	0xbd70c164	-0.05877818
102	0xbe468476	-0.19386467
103	0xbd1d4e84	-0.038404956
104	0xbe31b3cb	-0.17353742
105	0x3ced7c4d	0.028989935
106	0xb95f339b	-0.00021286162
107	0x3db81619	0.0898859
108	0x3c89547b	0.016763916
109	0xbcbac6ec	-0.022799931
110	0xbd9cf86d	-0.07664571
111	0xbcc9a1fe	-0.024613377
112	0x3cd32f4d	0.02577939
113	0x3c112f92	0.008861439
114	0xbd7fd4ae	-0.062458687
115	0x3c2e6138	0.010643296
116	0xbde6ae96	-0.112637684
117	0xbe41d749	-0.18929781
118	0x3d36f73e	0.044669382
119	0x3de96745	0.1139665
120	0x3df67dd7	0.12035721
121	0xbc9235e2	-0.017847959
122	0x3e0c22fc	0.1368522
123	0x3d36123b	0.04445098
124	0xbb6bc5ad	-0.0035975978
125	0xbdcb6496	-0.099312946
126	0x3e24ee4f	0.16106533
127	0xbd0a41b8	-0.03375408
128	0x3dbb62df	0.091497175
129	0x39d21e23	0.00040076775
130	0xbd82c26a	-0.06384738
131	0xb9e7f154	-0.00044239557
132	0xbce7fd85	-0.02831913
133	0x3d2460d0	0.04013139
134	0xbe226025	-0.15856989
135	0x3e076e78	0.13225734
136	0xbc68a84d	-0.014200282
137	0xbdf2bedc	-0.1185281
138	0x3d9ee200	0.0775795
139	0xbdbe9182	-0.09305097
140	0x3e28aae7	0.16471444
141	0xbe535bc6	-0.20640478
142	0x3e161c01	0.1465912
143	0x3b81c391	0.003960081
144	0xbe3aa431	-0.18226697
145	0x3c87b28e	0.016564634
146	0xbdf740b6	-0.120728895
147	0xbda353e1	-0.07974983
148	0xbc631539	-0.01386004
149	0x3d1840cb	0.037171166
150	0x3e2e7d59	0.17040004
151	0x3d01aa61	0.031656627
152	0x3e0c9e25	0.13732202
153	0x3c80ce46	0.015723359
154	0xbdb1de9b	-0.08685037
155	0x3dea3abd	0.11436985
156	0x3bfdc2c4	0.007744165
157	0xbdda602b	-0.10662874
158	0x3dafc2e5	0.08582095
159	0xbe109f9e	-0.14123389
160	0xbdc19df9	-0.09453959
161	0x3e187ace	0.14890596
162	0xbb049e9b	-0.0020236138
163	0xbe13975d	-0.1441321
164	0x3dffb725	0.12486104
165	0xbd88189b	-0.06645318
166	0xbd7425b0	-0.059606254
167	0xbdbd8558	-0.09253949
168	0x3e012539	0.12611856
169	0xbd74fca5	-0.059811253
170	0xbd6809e7	-0.05665007
171	0xbd431a09	-0.04763225
172	0xbcd3b12d	-0.02584132
173	0x3dad3136	0.08456652
174	0xbdda32e5	-0.106542386
175	0xbcc63e22	-0.02419955
176	0xbd19366a	-0.03740541
177	0x3d8742ef	0.066045634
178	0x3d97e357	0.074164085
179	0x3dde44dc	0.10852978
180	0x3cf007b8	0.029300556
181	0xbd95d49b	-0.07315942
182	0x3d9899d4	0.074512154
183	0xbddcc10d	-0.10779009
184	0x3d21ead1	0.03953058
185	0x3d84ca30	0.06483877
186	0xbd57b334	-0.052661136
187	0x3d2767f6	0.04087063
188	0xbe1763f7	-0.14784227
189	0xbd3c2b63	-0.045939814
190	0xbe123031	-0.14276196
191	0xbe0d5c8c	-0.13804835
192	0x3c00fda0	0.007872969
193	0x3d0bc70d	0.034125376
194	0xbd174d5c	-0.03693901
195	0x3d674070	0.056457937
196	0x3cbf4d77	0.023352368
197	0x3df65ea7	0.12029772
198	0x3df5011e	0.11963104
199	0xbd2dace2	-0.042401202
200	0xbba264eb	-0.004955878
201	0xbc9ef9d7	-0.019406242
202	0xbdf7cf90	-0.12100136
203	0x3dfb3b05	0.122671165
204	0xbe36cdb5	-0.17851909
205	0x3d1b4fbb	0.037917834
206	0x3b64533f	0.0034839658
207	0xbad8f521	-0.0016552546
208	0xbd87d35c	-0.066321105
209	0x3c68589b	0.014181281
210	0xbc4a0afb	-0.0123317195
211	0x3dcdc7a9	0.10047848
212	0xbe25e6ea	-0.16201368
213	0x3d03e83f	0.03220391
214	0xbdc60521	-0.09668947
215	0x3d9565a2	0.072947755
216	0x3dbb2192	0.091372624
217	0xbd516deb	-0.051130217
218	0x3e05b541	0.13057424
219	0x3d558e07	0.0521374
220	0xbe1672a3	-0.14692168
221	0xbe1a0b93	-0.15043478
222	0x3e371c0d	0.17881794
223	0xbe200294	-0.15625983
224	0xbe11f0e3	-0.14252047
225	0x3ceb2228	0.02870281
226	0xbd2c83c5	-0.042117853
227	0x3d68e7d3	0.05686171
228	0x3e0ca9f0	0.13736701
229	0x3bf60812	0.0075082863
230	0xbdd9c0f3	-0.10632505
231	0x3e148be0	0.14506483
232	0xbddc6610	-0.107616544
233	0x3e1974da	0.14985982
234	0xbdb713a7	-0.08939295
235	0x3e2391f4	0.15973645
236	0x3bae30da	0.005315882
237	0xbc124487	-0.008927471
238	0x3e349fd3	0.17639093
239	0xbd9de1b4	-0.07709065
240	0x3d692f67	0.056929972
241	0xbc1830b5	-0.009288956
242	0xbe03393e	-0.12814805
243	0x3dc78946	0.0974298
244	0x3e47e9e3	0.19522814
245	0xbe24291b	-0.16031305
246	0x3e1c4f54	0.15264636
247	0x3d58cb7a	0.052928425
248	0x3e27a7fe	0.16372678
249	0xbdef7b99	-0.11693496
250	0xbe177818	-0.14791906
251	0xbc8e3492	-0.017359052
252	0x3de0cb06	0.10976224
253	0xbc752d58	-0.014964424
254	0x3d784acd	0.06061821
255	0xbd21624d	-0.039400388

stages.1.1.bias f4 [32]
0	0x3e0c4186	0.1369687
1	0x3d81e631	0.06342734
2	0xbd01f309	-0.031725917
3	0xbdc0ef87	-0.09420686
4	0xbe2e2b3e	-0.17008683
5	0xbe0f4523	-0.13991217
6	0xbe19c0fa	-0.15015021
7	0xbd0fa604	-0.035070434
8	0xbe2dce49	-0.16973223
9	0x3d9f33e1	0.07773567
10	0xbdf513e8	-0.119666874
11	0xbca654b1	-0.020304056
12	0xbe47d0be	-0.19513223
13	0x3e14c1a0	0.14526987
14	0xbdf524cf	-0.11969911
15	0xbd536aaa	-0.051615395
16	0xbe0b282b	-0.13589542
17	0x3e097dfe	0.13426968
18	0x3e0a95bd	0.13533683
19	0xbddd0ba1	-0.10793234
20	0x3e15026c	0.14551705
21	0x3cf20db8	0.029547557
22	0x3d97ff43	0.07421734
23	0xbe00bf03	-0.12572865
24	0xbda5cd8b	-0.08095845
25	0x3dd26233	0.10272636
26	0xbda435fc	-0.08018109
27	0xbb0e1d04	-0.0021684775
28	0x3d9021f8	0.07037729
29	0x3c5d5def	0.013511165
30	0x3d69db7d	0.057094086
31	0x3ce7a35d	0.02827614

stages.2.performer.net.layers.0.0.norm.weight f4 [32]
0	0x3f83b252	1.0288794
1	0x3f82f79b	1.0231813
2	0x3f83c20d	1.0293595
3	0x3f84286a	1.0324833
4	0x3f8801ab	1.0625509
5	0x3f83b96c	1.0290961
6	0x3f80c1fd	1.00592
7	0x3f862a06	1.0481575
8	0x3f86549a	1.0494568
9	0x3f82f3da	1.0230668
10	0x3f7e4f68	0.99339914
11	0x3f80d830	1.0065975
12	0x3f860b55	1.0472208
13	0x3f804975	1.0022417
14	0x3f8a25d4	1.0792794
15	0x3f81fd3d	1.0155407
16	0x3f84682f	1.0344294
17	0x3f8929ab	1.0715841
18	0x3f866f34	1.0502687
19	0x3f8a6dda	1.0814774
20	0x3f837453	1.0269874
21	0x3f8367c3	1.026604
22	0x3f83c395	1.0294062
23	0x3f8136a0	1.0094795
24	0x3f8537df	1.0407676
25	0x3f810f8f	1.0082873
26	0x3f834600	1.0255737
27	0x3f8bd910	1.0925617
28	0x3f87f672	1.0622084
29	0x3f870b32	1.0550292
30	0x3f8955cd	1.0729309
31	0x3f8a2231	1.0791684

stages.2.performer.net.layers.0.0.norm.bias f4 [32]
0	0x3c93a788	0.018024221
1	0x3c53f8f3	0.012937772
2	0x3c65d9c8	0.014028974
3	0xbc68f777	-0.0142191565
4	0xbc91ebfd	-0.017812723
5	0x3c8de679	0.017321812
6	0x3c75f1ce	0.015011264
7	0xbca8f4c2	-0.020624522
8	0xbc373f10	-0.011184469
9	0x3d321ae5	0.04348268
10	0x3c396743	0.011316123
11	0x3c376909	0.011194476
12	0xbbcb2057	-0.0061989236
13	0x3c6d722e	0.014492555
14	0xbb6cfddd	-0.0036162056
15	0xb9b0a4a2	-0.00033691997
16	0xbc6b445a	-0.014359558
17	0x3b301b10	0.00268716
18	0x3ce709d7	0.028202934
19	0xbd967290	-0.0734607
20	0xbb7647a2	-0.0037579318
21	0x3ab52aab	0.001382192
22	0x3ca77543	0.020441657
23	0xbb5dde08	-0.0033854265
24	0xbcf0ca06	-0.029393207
25	0x3d232b17	0.039836016
26	0x3c714cdf	0.0147278
27	0x3b508909	0.003181996
28	0xbbd84176	-0.0065996004
29	0x3b9dc9e8	0.004815329
30	0x3b844d62	0.004037545
31	0x3b4f4616	0.0031627468

stages.2.performer.net.layers.0.0.fn.fast_attention.projection_matrix f4 [1, 2]
0	0xbfad71a5	-1.3550307
1	0xbf2c5d2e	-0.6732968
